model.pth (torch, 30075 bytes, 8 tensors)

linear_relu_stack.0.weight f4 [50, 30]
0	0x3d706987	0.05869439
1	0x3e27f076	0.16400322
2	0xba1ff8ce	-0.00061024434
3	0xbb2147c2	-0.0024609421
4	0x3d114e8d	0.035475302
5	0xbd25d24f	-0.04048377
6	0x3e239067	0.15973054
7	0xbd152656	-0.036413513
8	0xbc0a537a	-0.008442754
9	0xbe227256	-0.15863928
10	0xbd8b50ec	-0.06802544
11	0x3cf112f9	0.029427992
12	0x3d396f7c	0.045272335
13	0x3c560ea4	0.013065014
14	0xbd8bed18	-0.068323314
15	0xbde3aa51	-0.1111647
16	0xbc48d5b2	-0.01225798
17	0xbaa7aa0b	-0.0012791766
18	0x3e243d96	0.16039118
19	0xbd59abce	-0.05314236
20	0x3d832620	0.06403756
21	0x3d40d3fc	0.047077164
22	0xbebfc308	-0.37453485
23	0x3b99bf2a	0.004691978
24	0xbcb025c6	-0.021502387
25	0xbd507d1a	-0.050900556
26	0xbd3e9346	-0.04652717
27	0xbd76e91b	-0.0602809
28	0x3ddf9b71	0.1091832
29	0xbcd10597	-0.02551536
30	0x3cf8476b	0.030307492
31	0xbd4da451	-0.050205532
32	0xbddae0ca	-0.10687406
33	0xbdfbeb0e	-0.123006925
34	0x3dab9be9	0.08379347
35	0xbdbb1c76	-0.09136288
36	0x3d91a3c8	0.07111317
37	0x3d553007	0.052047756
38	0xbdeaa808	-0.11457831
39	0xbdac6144	-0.084169894
40	0xbe94d77b	-0.2907065
41	0x3e0fbbda	0.14036503
42	0xbdfb211b	-0.12262174
43	0xbd4e7a8b	-0.050409835
44	0x3d4a36b6	0.049368583
45	0x3e888e12	0.2667089
46	0xbd0bba66	-0.03411331
47	0x3d773faf	0.060363468
48	0x3dc5c4d9	0.09656686
49	0x3da853d5	0.08219115
50	0xbd934bf9	-0.07192225
51	0x3d9ec3d3	0.07752194
52	0xbe2eecce	-0.17082521
53	0x3cb0c4e1	0.021578254
54	0x3d2bf367	0.041980173
55	0x3e03b5dd	0.12862344
56	0x3d2cdb87	0.042201545
57	0xbdbb0fda	-0.09133883
58	0xbda4b3a7	-0.080420785
59	0x3da0dca1	0.078545816
60	0x3d0d0210	0.034425795
61	0x3d9748ef	0.07386958
62	0xbdde737b	-0.1086187
63	0xbcb5f991	-0.02221373
64	0xbc4bf700	-0.012449026
65	0x3d97177d	0.07377527
66	0x3e3e786d	0.18600626
67	0xbe15d074	-0.146303
68	0x3df14cea	0.11782248
69	0x3ec7b4b8	0.39005065
70	0xbe0e6805	-0.13906868
71	0x3e125f8d	0.14294262
72	0x3cbe0331	0.023194881
73	0x3d8de099	0.06927604
74	0xbdaf1851	-0.0854956
75	0x3e5de23f	0.21668337
76	0x3df873a9	0.121314354
77	0xbd40d7b4	-0.04708071
78	0x3cb672f2	0.022271607
79	0x3d780c5b	0.060558658
80	0x3dcd9733	0.100386046
81	0xbd89633d	-0.06708381
82	0xbd616375	-0.05502649
83	0x3de3e373	0.11127367
84	0xbdcba734	-0.09944001
85	0x3d00bf6b	0.03143255
86	0xbd9bcef2	-0.07607831
87	0x3de9c034	0.11413613
88	0x3c34f987	0.01104582
89	0x3e168a5a	0.14701214
90	0xbcb8eb6f	-0.022573201
91	0x3dae1072	0.084992304
92	0xbde3c8f5	-0.11122314
93	0x3cc9e337	0.024644477
94	0x3ac06a45	0.0014680108
95	0xbd65cd68	-0.056104094
96	0xbe335acc	-0.17515105
97	0xbe35a527	-0.17738782
98	0xbdaff622	-0.08591868
99	0x3c51acba	0.012797529
100	0x3e19b45d	0.1501021
101	0xbce9ee5b	-0.02855604
102	0x3d9c4809	0.07630927
103	0x3dd6519a	0.10464783
104	0x3d80c3a1	0.06287313
105	0xbeca319b	-0.3949097
106	0x3d199d13	0.037503313
107	0x3dd54532	0.104135886
108	0xbb4c70b2	-0.0031195101
109	0x3e0639e2	0.13108018
110	0x3d4647fd	0.048408497
111	0x3d76aee3	0.06022538
112	0xbe04abdb	-0.12956183
113	0x3b091d34	0.0020921947
114	0x3e01e1cf	0.12683795
115	0xbc62f94d	-0.013853383
116	0xbda30247	-0.07959419
117	0x3cfa69b6	0.030567985
118	0xbcc396c6	-0.023875605
119	0x3dc81543	0.0976968
120	0xbe2190b5	-0.15777858
121	0x3d87323e	0.0660138
122	0x3d441ce6	0.047879122
123	0x3d24b229	0.04020897
124	0xbd5e2c93	-0.054241728
125	0x3d5ade6a	0.053434767
126	0x3b7291c6	0.0037013157
127	0xbd0acf30	-0.033888996
128	0xbdd27c8f	-0.10277664
129	0xbe980c68	-0.29696965
130	0x3dac102b	0.08401521
131	0x3df60f2a	0.12014611
132	0xbda49df3	-0.08037939
133	0x3dbcaa79	0.092122026
134	0x3be1ba4e	0.0068886643
135	0x3e03765d	0.12838121
136	0xbd186d10	-0.037213385
137	0x3d2af184	0.041734233
138	0x3e331670	0.17489028
139	0xbe299ddd	-0.16564126
140	0x3ca5823e	0.020203706
141	0xbdeb8e77	-0.115017824
142	0x3bb48054	0.005508462
143	0x3e0b7ee2	0.1362262
144	0xbd97dc67	-0.07415085
145	0x3dd6333c	0.10458991
146	0xbca8971d	-0.020579869
147	0x3dff6b0d	0.1247159
148	0x3a553205	0.00081327587
149	0x3e55dbcd	0.20884629
150	0xbde8e2d5	-0.1137139
151	0xbdcca8e6	-0.09993152
152	0x3d4590b0	0.048233688
153	0xbd11e095	-0.03561457
154	0x3dbc4391	0.09192575
155	0x3dc8c214	0.098026425
156	0xbdc1f11b	-0.09469815
157	0xbe0c9a94	-0.13730842
158	0xbc97bcaf	-0.018522589
159	0xbea82641	-0.32841685
160	0xbe9879a2	-0.29780298
161	0x3da67a63	0.08128812
162	0x3d5629fe	0.05228614
163	0xbcdb97b9	-0.026805745
164	0xba6c024c	-0.0009003028
165	0x3d27f021	0.04100049
166	0x3df91d71	0.12163819
167	0x3b08495c	0.0020795679
168	0x3e4ae9b5	0.19815715
169	0xbcb54b4f	-0.022130636
170	0xbcbe8e2e	-0.023261156
171	0x3ca860c6	0.020553958
172	0x3e1d37ed	0.15353365
173	0x3d8feeb5	0.07027952
174	0xbd1e785a	-0.038688995
175	0x3d46a43c	0.04849647
176	0xbe134cc9	-0.1438476
177	0xb97e83a2	-0.00024272365
178	0x3d480f48	0.0488427
179	0xbdc9b861	-0.098496206
180	0xbd1aff2d	-0.03784101
181	0xbcb6adfe	-0.022299763
182	0xbe14ae24	-0.14519554
183	0xbd195cd5	-0.037442047
184	0x3db76afe	0.08955954
185	0xbb6de8e8	-0.0036302153
186	0xbe185aa5	-0.14878328
187	0x3d48e3bc	0.04904531
188	0x3e0ede8b	0.13952081
189	0xbd23c89f	-0.03998625
190	0x3d64ccdd	0.055859435
191	0xbd2e9097	-0.04261836
192	0xbc86d7b6	-0.01646028
193	0xbda2d09b	-0.079499446
194	0xbcb64e5d	-0.022254163
195	0x3dabb6d0	0.08384478
196	0xbdb781c8	-0.08960301
197	0xbdc56274	-0.09637919
198	0x3e5baee3	0.21453433
199	0x3cd00afe	0.025395866
200	0xbe06337a	-0.13105574
201	0xbd34594e	-0.04403048
202	0x3d1c2664	0.03812255
203	0x3d87ea4d	0.06636486
204	0x3d15462e	0.03644388
205	0x3e132062	0.14367822
206	0xbc8b4e51	-0.017005118
207	0x3c60bb2b	0.013716499
208	0xbd8d8f96	-0.069121525
209	0xbe685ba8	-0.22691214
210	0xbcb6c803	-0.02231217
211	0xbdf2171a	-0.118208125
212	0x3d567f06	0.052367233
213	0xbc3dbee4	-0.011581156
214	0x3bf5045e	0.0074773272
215	0xbdd9eba0	-0.10640645
216	0x3df647c3	0.12025406
217	0x3c82440b	0.015901586
218	0x3c104953	0.008806544
219	0x3e6fecd8	0.23430192
220	0x3e872767	0.2639725
221	0x3cb61d98	0.022230908
222	0x3dd2ce5b	0.102932654
223	0xbdd30ed0	-0.1030556
224	0xbcb7ef44	-0.022452958
225	0x3e201c15	0.15635712
226	0xbc9597f8	-0.01826094
227	0x3cca6d7f	0.024710415
228	0x3c7c20b3	0.0153886555
229	0x3ca0c431	0.019624801
230	0x3c67f6a8	0.0141579285
231	0x3dc909ce	0.09816323
232	0x3e7057c5	0.23470981
233	0xbd8138c6	-0.06309657
234	0x3cfb02ba	0.030640949
235	0x3dca4a15	0.09877411
236	0xbca7c1f3	-0.020478224
237	0x3b06eaf8	0.002058683
238	0xbc49e594	-0.012322802
239	0xbb87da31	-0.0041458835
240	0x3d6659c0	0.056237936
241	0xbd7bb311	-0.061450068
242	0xbddf19dc	-0.10893604
243	0xbd3ff28f	-0.04686218
244	0xbc6d30cd	-0.014476967
245	0xbda773a6	-0.08176355
246	0xbdf7e01f	-0.121032946
247	0x3ca157bc	0.019695155
248	0xbe0792ee	-0.13239643
249	0xbcc3f208	-0.02391912
250	0x3dd0089d	0.10157893
251	0xbe5abbf0	-0.21360755
252	0x3dcaf86a	0.099106625
253	0xbd12fcc5	-0.03588559
254	0xbd55d72f	-0.05220717
255	0xbd4a9f53	-0.04946835

linear_relu_stack.0.bias f4 [50]
0	0x3d2403bf	0.040042635
1	0xbd1d0b9c	-0.03834115
2	0x3e42a7ab	0.19009273
3	0xbd5f6039	-0.054535124
4	0x3cd8b8ab	0.026455244
5	0xbd4b7535	-0.049672324
6	0x3e9403f2	0.2890926
7	0x3d745070	0.059647024
8	0x3d1e0a82	0.03858424
9	0x3e652355	0.2237676
10	0xbb8f2901	-0.0043689017
11	0xbd3ecc78	-0.046581715
12	0x3db5b60b	0.088726126
13	0x3e48b211	0.19599177
14	0x3d054cdd	0.032544006
15	0x3e78319e	0.24237677
16	0xbca8498f	-0.020542888
17	0x3c900d01	0.017584326
18	0x3e68722e	0.22699806
19	0x3db39a53	0.087696694
20	0xbda92bda	-0.08260317
21	0xbc19c888	-0.009386189
22	0x3e34b10c	0.17645663
23	0x3e5a2a86	0.21305284
24	0x3e84d536	0.25943917
25	0x3e2e9642	0.17049506
26	0x3d35f42c	0.044422314
27	0xbc092348	-0.008370228
28	0x3e90affc	0.28259265
29	0x3d6de374	0.058078244
30	0xbd43693c	-0.04770778
31	0x3e0cab51	0.13737227
32	0xbd862ac9	-0.06551129
33	0xbcafd59c	-0.021464162
34	0x3d868ba9	0.06569607
35	0x3e644503	0.22291951
36	0xbd57aa79	-0.05265281
37	0xbbd8d3f1	-0.0066170623
38	0x3e1bec3a	0.15226832
39	0x3e962cbd	0.29331008
40	0x3e94f77d	0.2909507
41	0xbd8acca5	-0.06777314
42	0x3e2ade33	0.16686325
43	0x3e63c065	0.22241361
44	0x3dff9e33	0.12481346
45	0x3ddb9e2f	0.107235305
46	0x3cfe0740	0.031009316
47	0x3e14c0fc	0.14526743
48	0xbce2b127	-0.027672363
49	0x3e9f9def	0.3117518

linear_relu_stack.2.weight f4 [50, 50]
0	0x3e2daa98	0.16959608
1	0xbda6dcb4	-0.081475645
2	0x3d596da4	0.053083077
3	0x3d95924a	0.07303293
4	0x3de47074	0.11154261
5	0x3d90c7b0	0.07069337
6	0x3d147f2f	0.036254104
7	0x3c8ec53b	0.017428031
8	0xbda470d2	-0.08029331
9	0x3de79c01	0.11309052
10	0xbdcf07f3	-0.10108938
11	0x3d94140a	0.07230385
12	0x3c71698e	0.014734639
13	0xbd0385d0	-0.032110035
14	0x3d47ed70	0.048810422
15	0x3d4e181b	0.050315958
16	0xbcc4139c	-0.023935132
17	0x3d8e2f7a	0.06942649
18	0x3db01632	0.085979834
19	0xbdd78886	-0.10524087
20	0xbd775a76	-0.060389005
21	0xbd952661	-0.07282711
22	0xbddb6b73	-0.10713854
23	0xbd866cd1	-0.06563724
24	0x3ddccde4	0.10781458
25	0xbdeebb48	-0.11656815
26	0x3e07a030	0.132447
27	0xbc804a53	-0.01566044
28	0xbd5f2317	-0.054476824
29	0xbce15d66	-0.027510356
30	0x3dc660c8	0.09686428
31	0xbd449878	-0.047996968
32	0xbd5245af	-0.051335987
33	0x3e037793	0.12838583
34	0x3d4788f0	0.04871458
35	0x3d813be0	0.063102484
36	0x3e00d6a9	0.12581886
37	0xbd30e88a	-0.043190517
38	0xbdd6bed0	-0.10485613
39	0xbce15acc	-0.027509116
40	0x3c921404	0.01783181
41	0xbc950ca8	-0.018194512
42	0xbdb1b413	-0.086769246
43	0xbc45d3c0	-0.012074411
44	0x3cd4da50	0.025983006
45	0x3cdba4f1	0.026812049
46	0xbcab6f69	-0.020927148
47	0xbd71f1e0	-0.05906856
48	0xbd3b61bb	-0.0457475
49	0x3cf06807	0.02934648
50	0x3c8ac033	0.01693735
51	0x3dc0e8f6	0.09419434
52	0x3de46b2b	0.11153253
53	0x3de6ebd4	0.112754494
54	0xbdcfa4eb	-0.101388775
55	0xbc8f9e04	-0.017531402
56	0xbd1bec08	-0.038066894
57	0xbe06b3fc	-0.13154596
58	0x3da5328c	0.08066282
59	0xbd10a432	-0.03531284
60	0xbd0e59c8	-0.03475359
61	0x3cc39554	0.023874916
62	0xbb9b683e	-0.0047426512
63	0xbd75e602	-0.060033806
64	0x3d459450	0.048237145
65	0x3d9f6d42	0.07784511
66	0xbd8df18d	-0.06930838
67	0xbcd73c51	-0.026273878
68	0x3df1d6ba	0.11808534
69	0xbd8d54ca	-0.06900938
70	0xbb314386	-0.0027048304
71	0x3d0b7a6c	0.034052297
72	0xbd6f04c8	-0.05835417
73	0xbcb874f8	-0.022516713
74	0xbc2acaea	-0.010424355
75	0x3d4a5e6d	0.049406458
76	0x3dce9741	0.10087443
77	0x3ce449db	0.027867248
78	0x3d8de082	0.06927587
79	0x3d69382f	0.056938346
80	0x3ccdbdae	0.02511486
81	0x3db24904	0.08705333
82	0xbdf49d9a	-0.119441226
83	0xba5271b9	-0.000802781
84	0x3d3fdd3e	0.046841852
85	0x3e3c482f	0.18386911
86	0xbdce2216	-0.10065095
87	0x3e15fe79	0.14647855
88	0xbd97dbb7	-0.07414954
89	0x3c23f0b7	0.010006121
90	0x3c13bea1	0.009017617
91	0x3d815a89	0.06316096
92	0xbde48041	-0.11157275
93	0xbb674422	-0.0035288413
94	0x3d7f316a	0.062302984
95	0x3b586832	0.003302109
96	0xbc9443b5	-0.018098691
97	0x3bbf2ef5	0.005834455
98	0x3df15111	0.1178304
99	0xbd6d8015	-0.057983477
100	0x3e0e424d	0.13892479
101	0xbe155ca5	-0.14586122
102	0x3bda4449	0.0066609723
103	0x3d408d59	0.0470098
104	0x3d949754	0.07255426
105	0x3ad267f3	0.0016052708
106	0x3d069961	0.032861117
107	0xbd80f3f0	-0.062965274
108	0xbdb18a00	-0.086688995
109	0x3c4b24d1	0.012398914
110	0x3c2d0c68	0.01056204
111	0x3dcbf195	0.099581875
112	0xbc30ad03	-0.010783437
113	0xbde5c6fc	-0.11219594
114	0x3d899235	0.0671734
115	0x3d99ca30	0.07509267
116	0x3d96b389	0.07358462
117	0x3d95bb8d	0.07311163
118	0x3db6221a	0.08893223
119	0xbdb7291f	-0.0894339
120	0xbc37824b	-0.011200498
121	0x3dded150	0.10879767
122	0x3d943c6e	0.072380885
123	0xbce56e6e	-0.028006759
124	0xbd303539	-0.043019507
125	0x3db694a4	0.0891507
126	0xbb3b1695	-0.0028547395
127	0xbd624292	-0.055239268
128	0xbc7ef8a3	-0.015562209
129	0x3d65e722	0.05612863
130	0x3df7ccd5	0.120996155
131	0xbcda13a8	-0.026620701
132	0x3e2897c2	0.16464141
133	0x3d6706ea	0.05640308
134	0x3d561abe	0.052271597
135	0x3db2a324	0.08722523
136	0x3ce6be07	0.028166784
137	0x3e034bc2	0.12821868
138	0x3e02a40f	0.12757896
139	0x3d4aa9c8	0.049478322
140	0xbd8837e8	-0.06651288
141	0x3dabce72	0.08388986
142	0xbd9b1730	-0.07572782
143	0x3def266b	0.116772495
144	0xbcffc116	-0.03122
145	0x3db01f97	0.08599775
146	0xbda1799a	-0.07884522
147	0x3e0895e5	0.1333843
148	0x3e1e82e0	0.15479612
149	0xbd1868b6	-0.037209235
150	0x3e34b66b	0.17647712
151	0xbd5a7fb1	-0.053344432
152	0x3e1a648a	0.15077415
153	0xbd62b38f	-0.05534702
154	0xbd1ea006	-0.03872683
155	0xbd525f51	-0.051360432
156	0xbd2e0f89	-0.042495284
157	0x3e07ebee	0.13273594
158	0xbd3708b4	-0.044686034
159	0x3d35ec39	0.044414733
160	0x3df18b00	0.1179409
161	0xbd981d5a	-0.07427473
162	0xbd7db75a	-0.061942436
163	0x3ddf261a	0.10895939
164	0xbda1cd37	-0.0790047
165	0xbce1a02e	-0.0275422
166	0x3d242f5a	0.04008422
167	0x3cdc16d8	0.026866361
168	0xbc6db400	-0.014508247
169	0x3d7554e9	0.05989543
170	0x3d5c79bb	0.05382703
171	0xbcd767fe	-0.026294705
172	0xbd305ef6	-0.04305931
173	0x3d8045f2	0.06263341
174	0xbc30cef0	-0.010791525
175	0x3d489029	0.048965607
176	0x3e159cec	0.14610642
177	0x3df334e4	0.118753225
178	0x3d8eb288	0.06967646
179	0x3e058db1	0.13042332
180	0xbdbc6916	-0.09199731
181	0xbd31d3e1	-0.043414954
182	0xbc3a365b	-0.011365498
183	0x3e2806cd	0.16408844
184	0x3b2b501e	0.0026140283
185	0x3dfdbfb9	0.12390084
186	0xbd592bbd	-0.053020228
187	0xbde31818	-0.1108858
188	0x3da7f75a	0.082014754
189	0xbd56b6ce	-0.05242043
190	0x3df07fdb	0.117431365
191	0x3b8c80d0	0.0042878166
192	0x3de9939c	0.114051074
193	0xbd6df57e	-0.058095448
194	0xbd645a5a	-0.05575023
195	0x3d872df2	0.0660056
196	0x3c1b21b6	0.0094684865
197	0xbdd3af9d	-0.1033623
198	0x3df39ddc	0.11895344
199	0x3de189a7	0.11012583
200	0x3db46f2c	0.08810267
201	0xbdb098a0	-0.08622861
202	0xbd50700d	-0.05088811
203	0x3c3228ba	0.010873968
204	0x3d83b4b2	0.06430949
205	0x3dc467bd	0.09590099
206	0xbd8e05b1	-0.06934679
207	0x3d02020e	0.03174024
208	0xbd07d5af	-0.03316277
209	0x3da1e6c8	0.07905346
210	0x3c0b8880	0.008516431
211	0xbe144624	-0.14479882
212	0xbd75fe50	-0.060056984
213	0x3cc47cf9	0.023985373
214	0xbd1d5348	-0.0384095
215	0xbdb20de4	-0.08694056
216	0xbd7f5b9f	-0.062343236
217	0xbd665345	-0.056231756
218	0x3cd785a5	0.026308844
219	0x3d4326b0	0.047644317
220	0xbc16b2c9	-0.009197899
221	0xbd3347f7	-0.043769803
222	0x3bcd5ec7	0.006267402
223	0x3e02572c	0.12728566
224	0x3d11f8c0	0.035637617
225	0x3d966594	0.07343593
226	0xbd01105f	-0.031509753
227	0x3de939ce	0.113879785
228	0x375cf52d	1.3170106e-05
229	0x3daafe02	0.083492294
230	0x3db2a896	0.087235615
231	0xbdc495fd	-0.095989205
232	0x3da7b000	0.08187866
233	0xbe1c8928	-0.15286696
234	0xbdcbf2e8	-0.0995844
235	0x3de9d292	0.11417116
236	0xbd1fc7e2	-0.039008982
237	0xbd70c54f	-0.05878192
238	0x3ddbfddd	0.1074178
239	0x3dde4e8e	0.10854827
240	0xbd646496	-0.05575999
241	0x3c8fd00c	0.01755526
242	0x3d15084c	0.036384866
243	0xba90ecc1	-0.0011056886
244	0xbdda1902	-0.10649301
245	0xbe1a7320	-0.15082979
246	0x3e0fb014	0.14032012
247	0x3dfbcd7f	0.12295055
248	0x3da75fab	0.08172544
249	0x3de883d3	0.113532685
250	0x3de1b764	0.11021307
251	0xbd1e2b89	-0.038615737
252	0xbe11b9a1	-0.14230968
253	0x3dcea1f9	0.100894876
254	0xbdb72c53	-0.08944001
255	0x3daf0904	0.085466415

linear_relu_stack.2.bias f4 [50]
0	0x3e4224be	0.18959329
1	0x3e3eb53f	0.18623827
2	0xbc783eaa	-0.015151659
3	0x3d434ec7	0.04768255
4	0x3e0ccc95	0.13749917
5	0xbd4cc436	-0.04999181
6	0xbce65b2d	-0.028119648
7	0x3decb485	0.11557869
8	0xbd59aff1	-0.053146306
9	0x3d437509	0.047719035
10	0x3e06eec1	0.13177015
11	0x3e4be40d	0.19911213
12	0x3e620e39	0.22075738
13	0x3d901e20	0.07036996
14	0x3e51e819	0.20498694
15	0x3dd725d6	0.105052635
16	0x3e267aff	0.16257857
17	0x3d0f57d1	0.034995858
18	0x3e395bc5	0.18101414
19	0x3e09b840	0.13449192
20	0xbd9c197b	-0.076220475
21	0xbdb50318	-0.08838481
22	0x3e51151f	0.20418213
23	0xbc9c6e8b	-0.01909568
24	0x3ac428f6	0.0014965821
25	0xbdbaef5b	-0.09127685
26	0x3e0b6b39	0.13615121
27	0x3de33c4b	0.11095484
28	0x3dbe7579	0.0929975
29	0xbd23308e	-0.039841227
30	0x3e2b1bcc	0.16709822
31	0x3e61267a	0.21987334
32	0xbe4811d4	-0.19538051
33	0x3e0b276c	0.13589257
34	0x3e1bd9f5	0.15219863
35	0xbdaff03a	-0.085907415
36	0x3dd5fa58	0.1044814
37	0xbc4a8ef2	-0.012363182
38	0x3cf2dd51	0.029646548
39	0x3e0aaf60	0.13543463
40	0xbbd5d347	-0.0065254304
41	0x3d18d6b0	0.037314117
42	0x3dbc2c9f	0.09188198
43	0xbcb31853	-0.021862185
44	0x3e0a7d2e	0.13524315
45	0x3de8d04e	0.11367856
46	0x3dc7894f	0.097429864
47	0xbd9dc610	-0.07703793
48	0x3e39a853	0.18130617
49	0x3d968299	0.07349128

linear_relu_stack.4.weight f4 [50, 50]
0	0xbdca46c4	-0.09876779
1	0x3d9ff824	0.07811001
2	0xbcbf1514	-0.02332548
3	0xbe0582ed	-0.13038225
4	0xbd5d33db	-0.05400453
5	0x3c2baf22	0.010478767
6	0x3c81edc3	0.015860444
7	0xbc8e863c	-0.017397992
8	0xbd6ab5ff	-0.05730247
9	0xbc9095ab	-0.017649492
10	0x3dbacebf	0.09121465
11	0xbaa581f3	-0.0012627229
12	0x3d45c91c	0.048287496
13	0xbd8f0e65	-0.069851674
14	0xbe0a1e51	-0.13488127
15	0xbd5b0f2b	-0.053481262
16	0x3df20aeb	0.11818489
17	0xbdeb5a3c	-0.1149182
18	0x3b9700c1	0.004608244
19	0x3d4a375b	0.049369197
20	0xbd7a21c1	-0.061067346
21	0xbcd4638c	-0.025926374
22	0xbd80257b	-0.06257149
23	0x3dada524	0.08478764
24	0x3d7b91b6	0.061418258
25	0xbdde5317	-0.10855692
26	0x3cb8db54	0.022565521
27	0xbdc66ed8	-0.096891105
28	0x3d0318fa	0.03200624
29	0xbde8aa36	-0.1136059
30	0x3d634cc1	0.05549312
31	0x3a82135a	0.000992398
32	0xbe03cb0f	-0.1287043
33	0xbcd871ba	-0.026421417
34	0xbda7144d	-0.08158169
35	0x3b0170e9	0.0019751138
36	0x3d8ac14b	0.06775149
37	0x3dafd856	0.08586185
38	0x3dd69525	0.10477666
39	0xb935a0cf	-0.00017321411
40	0x3e098bd3	0.13432245
41	0xbdf68b87	-0.120383315
42	0xbdcace80	-0.09902668
43	0xbd376ac6	-0.04477956
44	0x3d53c414	0.051700667
45	0xbdcf9bc2	-0.1013713
46	0x3d16729c	0.036730394
47	0x3d314948	0.043282777
48	0xbe04f64b	-0.12984578
49	0xbe0f348a	-0.13984886
50	0xbc2aae07	-0.010417468
51	0xbdd2efe2	-0.1029966
52	0x3dd1fbe2	0.10253121
53	0xbe1af709	-0.15133299
54	0x3e10e5cb	0.14150159
55	0xbd9c2725	-0.07624654
56	0x3dd54dbb	0.104152165
57	0xbd5425a5	-0.051793713
58	0x3d0a51b6	0.033769332
59	0x3d448bf4	0.047985032
60	0xbd97a652	-0.0740477
61	0xbd81fadf	-0.06346678
62	0x3ddab040	0.10678148
63	0xbde7bf68	-0.11315805
64	0xbe0b64c6	-0.13612661
65	0x3e03f985	0.12888153
66	0xbd4293e6	-0.04750433
67	0xbc1d63ae	-0.009606285
68	0x3de75a8c	0.11296567
69	0x3d4101e0	0.04712093
70	0xbd1446e4	-0.03620042
71	0xbd50d1e6	-0.050981425
72	0x3def37e2	0.11680581
73	0x3e234c7e	0.15947148
74	0xbd120f2e	-0.035659008
75	0x3cee4c8b	0.029089233
76	0xbdbd058d	-0.09229574
77	0x3db844c0	0.08997488
78	0x3e065ed6	0.13122115
79	0xbd43cb46	-0.04780128
80	0x3e32f71d	0.17477079
81	0xbd13e8d8	-0.03611073
82	0xbe7a2b44	-0.24430567
83	0x3dde5a3e	0.10857056
84	0x3d7d5273	0.061846208
85	0xbcc77623	-0.024348324
86	0xbcc8bb98	-0.024503514
87	0xbe0109f3	-0.12601452
88	0x3de9863d	0.11402557
89	0xb9d2b3c3	-0.00040188254
90	0x3d4c2523	0.049840104
91	0x3d2f425a	0.042787887
92	0x3e0a80ec	0.13525742
93	0xbddfe50c	-0.10932359
94	0x3d69dffc	0.057098374
95	0xbe067f15	-0.13134415
96	0x3db9a150	0.09063971
97	0x3d1f8138	0.038941592
98	0x3c24b14d	0.010052037
99	0x3d37cd24	0.04487337
100	0x3d9d12c3	0.07669594
101	0x3e16ba57	0.1471952
102	0x3d6180f9	0.05505464
103	0x3dfadd03	0.12249186
104	0xbd3ab11f	-0.045579072
105	0xbe02712d	-0.12738486
106	0xbdb4667d	-0.088086106
107	0xbdc42f6d	-0.09579358
108	0x3cd42c45	0.025900016
109	0xbe070dd0	-0.13188863
110	0x3d37c4e9	0.044865523
111	0x3d8f1c71	0.06987847
112	0x3d9edb66	0.07756691
113	0xbd8aa162	-0.067690626
114	0x3db3871e	0.08766006
115	0x3ded5360	0.11588168
116	0x3db39a95	0.087697186
117	0x3de06cc7	0.10958248
118	0xbdbee6ff	-0.09321403
119	0x3dbd3531	0.09238661
120	0x3dd47225	0.10373334
121	0xbdd1c9ae	-0.102435455
122	0x3e269726	0.16268596
123	0xbe076d19	-0.13225211
124	0xbd61daa0	-0.055140138
125	0x3b45a8ed	0.0030160502
126	0x3dee3fcd	0.11633263
127	0xbdaa398d	-0.08311758
128	0xbd617f39	-0.05505297
129	0xbcbd1a85	-0.023083935
130	0x3dbaad7c	0.09115121
131	0x3d034e7c	0.03205727
132	0xbde9b8f3	-0.114122294
133	0x3cf1d94c	0.02952256
134	0x3d7c1405	0.06154253
135	0x3cc5d7b9	0.024150716
136	0x3ddd3180	0.10800457
137	0x3cfbc477	0.03073333
138	0x3e01238a	0.12611213
139	0x3db55016	0.08853166
140	0xbdc60190	-0.09668267
141	0xbd4a8ef4	-0.049452737
142	0x3df266e9	0.11836035
143	0x3d2daa92	0.042398997
144	0x3d88a957	0.06672924
145	0xbd8d29db	-0.06892749
146	0xbe05ca94	-0.13065559
147	0x3d5dbbbf	0.054134127
148	0xbcfae6e9	-0.030627685
149	0xbc51db86	-0.012808686
150	0x3e21bdc6	0.15795049
151	0x3d8a1de9	0.06743986
152	0xbda068e7	-0.078325085
153	0xbdd11ee4	-0.1021097
154	0xbdc833e8	-0.09775525
155	0xbda42f5b	-0.08016845
156	0x3c03fceb	0.008055906
157	0x3d09f05c	0.03367649
158	0xba938c03	-0.0011256937
159	0x3cda7dc2	0.026671294
160	0x3d76c119	0.060242746
161	0x3d915266	0.070957944
162	0x3ced1a27	0.028943134
163	0xbc241e95	-0.010017057
164	0xbdd34bde	-0.10317205
165	0xbdb428eb	-0.08796867
166	0xbdf9fbff	-0.122062676
167	0xbdd387a5	-0.103286065
168	0xbd687d35	-0.05676003
169	0x3e1a054c	0.15041083
170	0x3dcd6c24	0.10030392
171	0x3df3462a	0.11878617
172	0x3d8698ed	0.06572137
173	0xbe03f656	-0.12886938
174	0xbcd769fa	-0.02629565
175	0xbcaa16e5	-0.02076287
176	0x3c6b42b7	0.014359168
177	0x3dba984f	0.09111082
178	0xbd4a65e0	-0.04941356
179	0x3b93a7cb	0.0045060865
180	0xbd02f1aa	-0.03196875
181	0x3c0543c3	0.008133831
182	0xbcc9bfa2	-0.02462751
183	0x3de62313	0.112371586
184	0x3cdba7d1	0.02681342
185	0xbddd4d06	-0.10805707
186	0x3e05fdd6	0.13085112
187	0xbd017416	-0.03160485
188	0x3cb95958	0.02262561
189	0x3e27808f	0.16357635
190	0x3e0c01c2	0.13672546
191	0xbdb70d67	-0.08938103
192	0x3da196a5	0.07890061
193	0xbe12bbf0	-0.14329505
194	0xbdb1f7c9	-0.086898394
195	0x3df5dfae	0.12005554
196	0x3cb23fee	0.021759
197	0x3d81028c	0.06299314
198	0x3dbce1a3	0.09222724
199	0x3dd0e69e	0.10200237
200	0xbe1c012b	-0.1523482
201	0xbe08b7ec	-0.1335141
202	0x3e09e4bc	0.13466161
203	0xbcd9952d	-0.02656039
204	0x3df1b293	0.118016385
205	0x3e0bda59	0.13657512
206	0x3deea1d4	0.1165196
207	0xbd9b9978	-0.07597631
208	0x3e058730	0.13039851
209	0x3c879c0d	0.016553903
210	0xbc8618d0	-0.016369253
211	0x3deceabf	0.11568212
212	0x3d3e4f2b	0.04646222
213	0x3d6813d5	0.05665954
214	0xbdaa0f25	-0.0830367
215	0xbd9f1e4c	-0.077694505
216	0x3caff9ec	0.021481477
217	0x3d7f9cec	0.06240551
218	0xbd3f3287	-0.046679046
219	0xbd9f13fb	-0.07767483
220	0xbdad844f	-0.084725015
221	0x3d566c8b	0.05234961
222	0x3dca7303	0.09885218
223	0xbd8e55e3	-0.06949975
224	0x3d7f3233	0.062303733
225	0xbd5a732b	-0.05333249
226	0xbdca300c	-0.098724455
227	0xbcae6157	-0.02128665
228	0xbb8af07f	-0.004240095
229	0xbd8ebba3	-0.069693826
230	0x3c9bb232	0.019005869
231	0x3cae26c2	0.021258716
232	0x3d229d22	0.039700635
233	0xbd843193	-0.06454768
234	0x3d554096	0.052063547
235	0xbd96a285	-0.07355217
236	0x3d9aa036	0.07550089
237	0xbe0a6442	-0.13514808
238	0xbdeaa108	-0.114564955
239	0xbdc5e4c2	-0.09662773
240	0xbdbafbbc	-0.09130046
241	0x3dd4c346	0.10388808
242	0x3de7018c	0.11279592
243	0x3c49ede2	0.012324782
244	0xbcdca20a	-0.026932735
245	0x3da26372	0.07929124
246	0xbdd95a63	-0.10612943
247	0x3d09ff55	0.03369077
248	0xbdf2ae98	-0.11849707
249	0x3df44bcf	0.11928522
250	0xbd91a270	-0.071110606
251	0xbdbf5aa2	-0.09343459
252	0xbc9724f8	-0.018450245
253	0x3d88accb	0.06673583
254	0x3dcc3697	0.0997135
255	0x3d8640db	0.06555339

linear_relu_stack.4.bias f4 [50]
0	0xbd49eea1	-0.04929984
1	0xbd4d4454	-0.05011399
2	0x3db7b3a1	0.08969808
3	0x3c6c26ba	0.01441353
4	0xbe04ab1e	-0.12955901
5	0xbd066fb0	-0.032821357
6	0xbe189340	-0.14899921
7	0xbda626a9	-0.081128426
8	0xbdb18985	-0.08668808
9	0x3dc7a98a	0.09749134
10	0xbddf19dd	-0.10893605
11	0xbdf1c6a8	-0.11805469
12	0xbdbe7218	-0.092991054
13	0x3d2e54be	0.042561285
14	0x3d9fc986	0.078021094
15	0x3d35a68f	0.044348296
16	0x3df93d36	0.12169878
17	0xbd98b1e0	-0.07455802
18	0xbd94afa1	-0.07260061
19	0xbe121cf6	-0.1426886
20	0x3d4bd91c	0.0497676
21	0xbbabab75	-0.005238945
22	0xbc63b150	-0.013897255
23	0x3c0a3110	0.008434549
24	0x3d0a434f	0.033755597
25	0x3e39b0bf	0.1813383
26	0xbd17a08e	-0.03701835
27	0x3e40e344	0.18836695
28	0xbd98abf6	-0.07454674
29	0xbd6e58ad	-0.058190037
30	0x3e281256	0.16413245
31	0xbd438400	-0.047733307
32	0x3dd0d554	0.10196939
33	0x3e1ace08	0.15117657
34	0x3e34d803	0.17660527
35	0xbd7ccd7e	-0.06171941
36	0x3e2a065c	0.16603988
37	0x3d804b5f	0.06264376
38	0xbbf99bb0	-0.0076174363
39	0x3c0c6314	0.008568544
40	0xbddf5e01	-0.10906602
41	0x3d88117b	0.06643959
42	0x3df433ce	0.119239435
43	0x3d7c5eda	0.061613895
44	0x39b5d9d4	0.00034685305
45	0x3d3115ca	0.04323367
46	0x3e2353ff	0.1595001
47	0x3dca92e2	0.09891297
48	0xbccbc964	-0.024876304
49	0x3d955870	0.07292259

linear_relu_stack.6.weight f4 [3, 50]
0	0xbde7e4e6	-0.11322956
1	0xbdf5442d	-0.11975894
2	0x3de76d71	0.11300171
3	0x3dc192b0	0.094518065
4	0xbd15550f	-0.03645807
5	0x3df50810	0.119644284
6	0x3e0650e5	0.13116796
7	0xbd811d31	-0.06304396
8	0xbd683f4c	-0.05670099
9	0x3dd2d789	0.10295016
10	0xbe2f0142	-0.17090324
11	0xbe04eefd	-0.12981792
12	0x3e21e978	0.15811718
13	0xbdb91489	-0.0903712
14	0xbd462710	-0.048377097
15	0xbdb53325	-0.08847646
16	0xbdd198bb	-0.10234209
17	0xbc96021d	-0.018311555
18	0x3df4cd35	0.11953203
19	0x3cf4ec0b	0.02989771
20	0xbdf4730c	-0.11936006
21	0x3d07bf75	0.033141572
22	0x3d47ad72	0.048749395
23	0x3db748bd	0.089494206
24	0x3d8ab0cb	0.06772002
25	0x3df53794	0.11973491
26	0x3d551892	0.052025385
27	0xbbd9f33d	-0.0066513107
28	0x3bec6705	0.0072144293
29	0xbdaa9f03	-0.0833111
30	0xbd2307a4	-0.03980221
31	0x3ddb08ce	0.10695039
32	0x3d482f91	0.048873488
33	0x3e03eeb4	0.12884027
34	0x3de941a1	0.11389471
35	0x3e156f1b	0.14593165
36	0x3dc72562	0.09723927
37	0x3e1533be	0.1457052
38	0x3dff9148	0.12478882
39	0xbdf97b82	-0.1218176
40	0x3ddcbb29	0.107778855
41	0x3d775397	0.06038245
42	0x3da32a94	0.079671055
43	0xbd72398a	-0.059136905
44	0x3dd48593	0.1037704
45	0x3ce7089a	0.028202344
46	0x3d6e1624	0.058126584
47	0xbcd4bc7f	-0.025968788
48	0xbda7501a	-0.08169575
49	0x3dc88069	0.09790117
50	0xbcadf80d	-0.021236444
51	0x3db8f1c8	0.09030491
52	0x3e1e43bc	0.15455526
53	0x3b9cd908	0.0047866143
54	0xbce74971	-0.028233262
55	0x3d6fb954	0.058526352
56	0x3d8c8216	0.068607494
57	0x3d39c454	0.04535325
58	0x3dc19556	0.09452312
59	0xbddf458a	-0.109019354
60	0xbd820c1c	-0.06349966
61	0xbdae901d	-0.08523581
62	0xbdc8ce00	-0.098049164
63	0xbd571172	-0.05250687
64	0x3e26cef7	0.16289888
65	0x3dd6fbbc	0.10497233
66	0x3d89e2f5	0.06732742
67	0xbe844171	-0.25831178
68	0x3d287716	0.041129194
69	0x3d48b82b	0.04900376
70	0x3dcffdc3	0.10155823
71	0x3c955d06	0.018232834
72	0xbd9cc2f6	-0.07654373
73	0x3dea0459	0.114266105
74	0x3e14d4b1	0.1453426
75	0x3cae2676	0.021258574
76	0xbde90df9	-0.11379618
77	0x3e0c9627	0.13729154
78	0xbe104efc	-0.1409263
79	0xbe159457	-0.14607368
80	0x3d87e3b1	0.066352256
81	0x3c358dc0	0.011081159
82	0x3d3af7c7	0.045646455
83	0x3e43e0bc	0.19128698
84	0xbc477291	-0.012173311
85	0x3d168b7f	0.036754128
86	0xbdcbf4e1	-0.09958816
87	0x3e248289	0.1606542
88	0x3e1e3db1	0.15453221
89	0x3cf2139e	0.02955037
90	0xbe3ca9c3	-0.18424134
91	0xbbff5886	-0.0077925352
92	0xbbcde1b7	-0.006283011
93	0x3dcd9461	0.10038067
94	0x3deb7dd0	0.11498606
95	0x3da9ef92	0.082976475
96	0x3e2ba008	0.16760266
97	0xbd73e40c	-0.059543654
98	0xbe15d089	-0.14630331
99	0x3c8da86a	0.01729222
100	0xbd205d2a	-0.03915135
101	0xbd99b102	-0.07504465
102	0xbdc6dd5b	-0.09710189
103	0x3dc9d1f6	0.098545
104	0xbde7aa77	-0.113118105
105	0x3dbd0fe4	0.092315465
106	0xbdc75949	-0.09733827
107	0xbd8d4e1a	-0.06899662
108	0x3c0d4137	0.008621505
109	0xbdafe273	-0.08588114
110	0x3d859dc4	0.06524232
111	0xbc5d973d	-0.013524828
112	0xbddbeec4	-0.107389
113	0x3e07ab72	0.13248995
114	0x3dbd0f74	0.09231463
115	0xbe110dd8	-0.14165437
116	0x3e351174	0.17682439
117	0xbd27dd04	-0.04098226
118	0xbd28e466	-0.041233443
119	0xbdbc1d75	-0.09185306
120	0x3dabd92a	0.0839103
121	0xbdea4354	-0.11438623
122	0x3e2bbc4e	0.16771051
123	0xbe0b8fcf	-0.13629077
124	0xbd99677f	-0.074904434
125	0x3d91359d	0.07090304
126	0x3e3299f4	0.17441541
127	0x3dcc23e3	0.09967782
128	0x3d9164d7	0.07099312
129	0xbc45c522	-0.012070926
130	0x3cc708da	0.024296213
131	0xbe3019cd	-0.17197342
132	0x3dace36b	0.08441814
133	0xbd0f1f0d	-0.03494172
134	0x3e0a09e7	0.1348034
135	0x3e1a6b50	0.15079999
136	0x3dadfc70	0.08495414
137	0x3d124548	0.035710603
138	0x3db39807	0.08769231
139	0xbd9f2d59	-0.07772321
140	0xbe2b5e07	-0.16735087
141	0x3dada38a	0.08478458
142	0x3dc3f699	0.09568519
143	0x3d83ecdd	0.064416625
144	0xbd6a106c	-0.057144567
145	0x3d7dd683	0.061972152
146	0x3e05fa2d	0.13083716
147	0x3dbd18c8	0.09233242
148	0x3e0ec45c	0.13942093
149	0x3d9e5e9a	0.077328876

linear_relu_stack.6.bias f4 [3]
0	0x3dae41d4	0.085086495
1	0xbd604c73	-0.054760408
2	0x3d7296ea	0.059225954
